…
		EMNIST Letters: 145,600 characters. 26 balanced classes.
		EMNIST Digits: 280,000 characters. 10 balanced classes.
		EMNIST MNIST: 70,000 characters. 10 balanced classes.

		i have trained my model on two different datasets i.e. 
		1-EMNIST ByClass(model.h5 and model.json)
		2-EMNIST Letters(model_small.h5 and model_small.json)

2-Model:
	the Model used is described as below:
		_________________________________________________________________
	Layer (type)                 Output Shape              Param #   
	=================================================================
	reshape_1 (Reshape)          (None, 28, 28, 1)         0         
	_________________________________________________________________
	conv2d_1 (Conv2D)            (None, 28, 28, 32)        832       
	_________________________________________________________________
	conv2d_2 (Conv2D)            (None, 24, 24, 32)        25632     
	_________________________________________________________________
	max_pooling2d_1 (MaxPooling2 (None, 12, 12, 32)        0         
	_________________________________________________________________
	flatten_1 (Flatten)          (None, 4608)              0         
	_________________________________________________________________
	dense_1 (Dense)              (None, 512)               2359808   
	_________________________________________________________________
	dropout_1 (Dropout)          (None, 512)               0         
	_________________________________________________________________
	dense_2 (Dense)              (None, 62)                31806     
	=================================================================
	Total params: 2,418,078
	Trainable params: 2,418,078
	Non-trainable params: 0

3-Accuracy:
	epochs-20
	accuracy is 93.36% for EMNIST Letters(model1.h5 and model1.h5) trained on my PC
	 and
	97.84% for EMNIST ByClass: 814,255 characters. 62 unbalanced classes trained on my institute GPU.
	results sheet has been attached for EMNIST Letters names as results.txt
…
