
Using TensorFlow backend.
vaibhav-:dataset loaded

_________________________________________________________________
Layer (type)                 Output Shape              Param #   
=================================================================
reshape_1 (Reshape)          (None, 28, 28, 1)         0         
_________________________________________________________________
conv2d_1 (Conv2D)            (None, 28, 28, 32)        832       
_________________________________________________________________
conv2d_2 (Conv2D)            (None, 24, 24, 32)        25632     
_________________________________________________________________
max_pooling2d_1 (MaxPooling2 (None, 12, 12, 32)        0         
_________________________________________________________________
flatten_1 (Flatten)          (None, 4608)              0         
_________________________________________________________________
dense_1 (Dense)              (None, 512)               2359808   
_________________________________________________________________
dropout_1 (Dropout)          (None, 512)               0         
_________________________________________________________________
dense_2 (Dense)              (None, 62)                31806     
=================================================================
Total params: 2,418,078
Trainable params: 2,418,078
Non-trainable params: 0
_________________________________________________________________
None
Train on 124800 samples, validate on 20800 samples
Epoch 1/20

   128/124800 [..............................] - ETA: 1:29:24 - loss: 4.1195 - acc: 0.0078
   256/124800 [..............................] - ETA: 56:56 - loss: 3.9383 - acc: 0.0352  
…
